system_ext/etc/barrage_v3.tflite (tflite, 741880 bytes, 40 tensors)

model/re_lu/Relu6;model/batch_normalization/FusedBatchNormV3;model/in_conv/BiasAdd/ReadVariableOp;model/in_conv/BiasAdd;model/in_conv/Conv2D f4 [32]
00000000: 7385 803e 4c5f 2ebd b3f1 8dbe b65e 513e
00000010: d3cf f0be a934 433e 1152 2fbe 1f40 a7be
00000020: a66f 01be fed3 c23e d84a 5abe 4b22 2ebe
00000030: 8cd2 fb3e 2611 fcbe f79a a03d ef72 0a3f
00000040: cb4a 15bf 91ef 13be 21c6 f03e 1afb f63e
00000050: 0689 3cbf da3d a3be 36c5 2d3f f15a a2be
00000060: 2131 edbe 12ec 833c 1a31 36bf 2607 cb3e
00000070: 38ed 11bf 2dff 23bf 37fa 5dbf ee36 c9be
0.25101814 -0.04257135 -0.27723464 0.20446286 -0.47033557 0.19063057 -0.1712115 -0.32666108
-0.12640247 0.38052362 -0.21317613 -0.17005269 0.49184072 -0.49231833 0.07842057 0.54081625
-0.5831725 -0.14446856 0.4702616 0.4823845 -0.7364658 -0.31883126 0.67879045 -0.31710008
-0.46326545 0.016103778 -0.71168673 0.3965389 -0.5700259 -0.6406124 -0.8670992 -0.3929972

model/batch_normalization_1/FusedBatchNormV3 f4 [96]
00000000: 6694 be3d 5278 b0be 766f 61be b26e 0e3f
00000010: f9fa 1abf 507f 37bf aaa3 8abe f26f eabe
00000020: ad78 373e 259c 433f fb14 f1be 8059 51bd
00000030: 3080 983d a7d1 ac3e ef09 0a3e 291e 08bf
00000040: e8ad f83c 8625 3bbf 58dc e0be 1140 1cbf
00000050: 5036 3bbc fe49 f3bd 0083 a139 9b75 d3be
00000060: 3767 4ebe b3af d83e 0c5f 983e 3ed1 2bbe
00000070: dc25 10bd 4997 463e d204 50bf 764a 2e3e
00000080: 9091 f8be c246 41be 3522 433e e8c0 4bbf
00000090: 80b4 273e efee 06bf 2f7f 82be 1234 563e
000000a0: 64c8 2f3e 5eea a63d 36de 19bd a888 c53e
000000b0: 9a24 69be f888 ec3d a86d 96bc bb03 8d3e
000000c0: 578b 153e f2ce 0a3f 9673 e4be 28c7 bc3e
000000d0: 64c8 833e 7515 b4bd ce3c f5bd 5df7 223f
000000e0: b18d 0e3f 684a 1dbd 2862 653e 9dad f73e
000000f0: 7a93 1d3f d282 7a3d 6c96 dd3e 2dca 17bf
00000100: 20f6 a93a eefa b33c 7e2b 0f3f 80ee a73b
00000110: 1b4b 143f a8b3 573d 2a2b d4bd 42fa 2dbf
00000120: de28 46be 94a8 e83e e5d7 3dbf 66d3 443e
00000130: 23fb 543f 8078 01be c54a fabe b1b3 103f
00000140: defe 61be 6a0e 843e ba75 973e caf8 153d
00000150: 5543 5fbd 9bfd 853e 60b4 a53e 2172 3bbe
00000160: 7a62 ccbe 5ee4 88be 0ebe 2b3d ea24 27bf
00000170: 8882 debd 4fc0 8ebe e4ec b9be 88d5 3dbe
0.093056485 -0.34466797 -0.22015175 0.5563766 -0.60539204 -0.7167864 -0.2707799 -0.45788532
0.17917128 0.7641013 -0.4708632 -0.051110744 0.07446325 0.33753702 0.13480352 -0.5317102
0.030356362 -0.7310413 -0.4391811 -0.6103526 -0.011426523 -0.11879347 0.00030805916 -0.41300663
-0.20156561 0.42321548 0.29760015 -0.16779038 -0.035192356 0.19393648 -0.81257355 0.17020592
-0.48548555 -0.18874648 0.19056018 -0.79591227 0.16377449 -0.52708334 -0.25487658 0.20918301
0.17166287 0.08150171 -0.037565432 0.38580823 -0.22767869 0.11549562 -0.018362835 0.2754191
0.14603935 0.54222023 -0.44619435 0.36870694 0.25738823 -0.08793155 -0.11974488 0.63658696
0.55684954 -0.038401037 0.22400725 0.48374644 0.61553156 0.061159916 0.43278825 -0.5929287
0.0012967028 0.021970239 0.5592574 0.005124867 0.579271 0.052661568 -0.103597954 -0.6795999
-0.19351527 0.45441115 -0.74157554 0.19221267 0.83195704 -0.12643623 -0.4888517 0.5652419
-0.2206988 0.25792247 0.29582006 0.036614217 -0.054507572 0.26170048 0.32364178 -0.18305255
-0.39918882 -0.2673673 0.041929297 -0.652907 -0.108647406 -0.27881095 -0.36313546 -0.18538487

model/batch_normalization_2/FusedBatchNormV3 f4 [96]
00000000: 5c4f 843e e06e 94ba d66f 4dbe aa4e 8bbe
00000010: 7af7 86be 6191 98be 1a46 e83d 64d3 fc3d
00000020: 59a5 7e3e f26e 10bf 35f0 b53e 84be b3bc
00000030: cbb0 4b3e 63bf 44be e660 2abd a480 503d
00000040: 8ea9 1c3d fdc1 4ebe e8a1 93be c7ee 18bd
00000050: 821f cdbd 29cd ad3e 31af ba3e 56d1 6ebe
00000060: 9fc9 db3d f9aa d3be 0869 ecbe ac41 afbd
00000070: 9688 803e f458 7abe 45b9 683e 1415 8fbe
00000080: 749d 22bf c4f3 f0bb 9d85 6a3e a65e d83e
00000090: 6ad0 333e 8cd3 b8be d99a 05be f9a0 1fbf
000000a0: 98b7 c8be 1989 ec3d 0530 e1be 57fc 383e
000000b0: 75ce cebe 6f5b fd3d c62f 1c3d 1034 8dbd
000000c0: 0619 fbbd ecbe 36be 5303 273d f8d8 0d3c
000000d0: b47b c4be b2f8 d03d ebc5 40be d075 fabc
000000e0: 2c4d 673f b8b1 6c3e c3f0 4f3e 0e17 90be
000000f0: 8244 26bf cb57 0c3e ccbd 2f3e afee 073e
00000100: b18e 733e 34ec 4bbd c25b 24be 20c3 d0be
00000110: 1cd4 31bf be9f 13be 46d8 fb3d 5826 30bd
00000120: b4bb 683f ee3e 703f 1c09 e8bd a06f 55bc
00000130: 209e 90bf 267d 38bd 73c2 dcbe c86d 7b3e
00000140: d236 a23c 6d4d 073e 4c76 2bbe 8c4d 69bd
00000150: 7aca babe 4e07 453e 7f50 d93d 9455 0e3d
00000160: 6065 adba 09cc 873e 0ae3 89bc 508d a339
00000170: 5896 2cbe cdc2 813e 2453 0e3e 1c81 943e
0.25841796 -0.0011324547 -0.20062193 -0.27208453 -0.26360685 -0.29798415 0.11341496 0.12345007
0.24867763 -0.5641929 0.35534826 -0.02194143 0.1989166 -0.19213633 -0.041596316 0.05090393
0.038247637 -0.20191188 -0.28834462 -0.03733709 -0.10015775 0.33945587 0.36461785 -0.23322043
0.107318155 -0.4134138 -0.46173882 -0.08557448 0.25104207 -0.24447995 0.22726925 -0.2794577
-0.63521504 -0.007353278 0.22902532 0.4225971 0.17559972 -0.36098897 -0.13047351 -0.62355
-0.3920257 0.11549587 -0.43981948 0.1806501 -0.4039189 0.12370955 0.038131498 -0.06894696
-0.12260632 -0.17846268 0.040774655 0.008657686 -0.38375628 0.10203685 -0.188255 -0.030573756
0.9035213 0.2311467 0.20306687 -0.2814259 -0.64948285 0.13705365 0.17162246 0.13274644
0.23784901 -0.049785808 -0.16050628 -0.4077387 -0.6946428 -0.14416406 0.1229711 -0.043005317
0.9091141 0.93846023 -0.113298625 -0.013027102 -1.1298256 -0.045041226 -0.43117103 0.24553597
0.019801531 0.1321313 -0.16744345 -0.05695872 -0.36482602 0.19241068 0.106110565 0.034749582
-0.0013229065 0.26522854 -0.016831893 0.0003119507 -0.16854227 0.25343934 0.13898903 0.29004753

model/batch_normalization_4/FusedBatchNormV3 f4 [96]
00000000: 3356 3e3e 24ec 873d 1ec5 af3d d55e c6bd
00000010: 1e1a f9bc 6f15 a03c b64e 30bb 5825 5b3d
00000020: ea57 efbd 133e a63d 4daf df3c 5fa0 3c3e
00000030: b47d 913d 3b0a 35be f34c 8c3d aeb3 57be
00000040: e28a f5bc 63e7 443e 08a5 83be 4632 58be
00000050: e358 8f3c 66b2 593d c6c4 82bd 35aa a9bd
00000060: cab1 2f3e fdf6 7a3e 139a 473d d772 f23d
00000070: b9bb d3bd f499 d33b 9591 92bd ee45 fe3d
00000080: cb6f 883e 3208 343e 3afd 14be 8997 1ebd
00000090: 30e4 ef3d effa 37bd 3d08 babc c297 2ebd
000000a0: 34c4 00be dacc 503e c44f f23d 6e95 b4bd
000000b0: 02d0 67bc 71d8 08bd 8182 07be 9baf 14be
000000c0: b823 613d 9262 aabc 69f7 70bd 5b8e ca3d
000000d0: bfaa 40be 1739 09be 9f77 983d a9c8 0d3d
000000e0: 5c38 73be 8eeb 063d f080 f8bc 8604 a4ba
000000f0: 15c0 8c3c 136c 01be 20c3 b23c 0a4a edbd
00000100: 7db0 5a3d 42ee 363d a0ce 253e 4045 05b9
00000110: f652 ce3d 2cb6 fcbb 873e ebbd e4a7 febc
00000120: 4bbe 9e3c d849 8b3d 7a34 243e 908a 15be
00000130: 7073 813b f332 09bd f0c6 c53d af5f 96be
00000140: 3f1a fe3b e7ac 33be e3ca 94bd 891e 23be
00000150: 9b66 623d faab b83c 2003 94bd 9061 b33d
00000160: 292f e23d bdbb 60bd 042b 88bc 9694 793b
00000170: 246c 4abe 37d6 4fbe a5a7 c8bd e30c e73d
0.1858757 0.06636837 0.08582519 -0.096860565 -0.030407961 0.01954147 -0.0026902384 0.05350241
-0.1168669 0.081173085 0.02730527 0.18420552 0.07104054 -0.17679684 0.068506144 -0.21064636
-0.029973451 0.19228892 -0.25711846 -0.21112928 0.01749844 0.05314865 -0.06385188 -0.082844175
0.17157665 0.24508281 0.04873092 0.1183831 -0.1033854 0.0064575616 -0.07156674 0.12415682
0.2664779 0.17581251 -0.14549723 -0.038718734 0.11713445 -0.044917043 -0.022709006 -0.042625196
-0.12574846 0.20390645 0.1183162 -0.08817564 -0.014148714 -0.03340954 -0.13233377 -0.14520113
0.054965705 -0.020798955 -0.0588297 0.098904334 -0.18815134 -0.13400684 0.07444691 0.034615193
-0.23751968 0.032939486 -0.03033492 -0.0012513555 0.017181436 -0.12638883 0.021821558 -0.115863875
0.05339097 0.044660814 0.16192102 -0.00012709666 0.10074417 -0.0077121463 -0.114865355 -0.031085916
0.019377848 0.06801194 0.16035643 -0.14603639 0.003950529 -0.033495855 0.09657085 -0.29369876
0.0077545936 -0.17546426 -0.0726526 -0.15929617 0.055273633 0.022542942 -0.072271585 0.08758843
0.11044151 -0.05486654 -0.016622074 0.003808295 -0.19767815 -0.2029656 -0.09797601 0.11281755

model/batch_normalization_5/FusedBatchNormV3 f4 [96]
00000000: af5a 08be fb0b e8be f5a1 813f 5cf7 31be
00000010: a4f7 abbe 93d9 edbe a3d7 35bf 00ea f7bc
00000020: 4bfc 8d3f a511 babf 2467 513e 00ec b43c
00000030: 3b15 a93e a65a 0bbf 0268 cc3d eebd aebe
00000040: 36f7 d6be 4d45 0940 b352 85be 5e0c e8be
00000050: 60fa e9be 9309 02bf 68fd f7be d902 903e
00000060: 056c 163e 18a9 003e ee98 cbbe e676 d4be
00000070: 7928 4c3e 9eb5 163f f240 273f 028f a33e
00000080: 4359 d93e dad5 6e3f 3816 b6be 4cf7 bdbe
00000090: 6af7 423e 3e2e e53d 2cff 99bf 1b8b 0f3f
000000a0: e062 eabe e5a2 ee3e 7615 54be 748e 84bd
000000b0: 12cc 16bf 1447 6f3d 1e14 75be 2fde fcbe
000000c0: 4736 08be e5d0 3d3f aedd ecbb d48b e03f
000000d0: b20d b6be 6659 f6be f796 253e f1a5 5cbf
000000e0: 71ff 96be b954 f5be 433c 3dbe 005f 10bf
000000f0: 46f1 aa3e d72e 2ebf ae73 96be b5e1 bdbd
00000100: 7edc a53e 5366 f03d a7d3 903f b04c debe
00000110: f539 3a3f 280c 30bf 86cf 10bf 09e4 d93e
00000120: 3a08 48be a05f 643f 4782 993f c0c1 5abe
00000130: 62db 17bf 681c c73e 2eba adbe 86ba 23be
00000140: ef80 09bf 3018 31bf 13de 22bf a3ce 26bf
00000150: 1feb d33e 6c7d aabe 1a52 e43d 40b7 8fbc
00000160: d1c6 1dbe 5246 933e bb76 3d3f 05d9 523e
00000170: 7ac2 cebe 368d 0dbf 40de 773e b13e b23d
-0.13315843 -0.4532164 1.012755 -0.17379516 -0.33587372 -0.46455058 -0.7103216 -0.030262947
1.1092619 -1.4536635 0.20449501 0.02208519 0.3302401 -0.54435194 0.099807754 -0.3412928
-0.41985482 2.1448548 -0.26039657 -0.45321935 -0.45698833 -0.5079586 -0.4843552 0.28127173
0.14689644 0.12564504 -0.39765114 -0.41496962 0.19937314 0.58870876 0.65333474 0.31945044
0.42450914 0.9329506 -0.35563827 -0.37102735 0.19039693 0.111904606 -1.2030997 0.56071633
-0.4577856 0.46608654 -0.20711312 -0.06472483 -0.58905137 0.058417395 -0.23933455 -0.49388263
-0.13301955 0.7414687 -0.0072285747 1.7542672 -0.35557324 -0.4811508 0.1617087 -0.86190706
-0.2949176 -0.479162 -0.1848002 -0.5639496 0.33387202 -0.6804022 -0.29385132 -0.09271566
0.32394785 0.11738267 1.1314591 -0.43417883 0.72744685 -0.6876855 -0.56566656 0.4255679
-0.19534388 0.8920841 1.1992882 -0.21362972 -0.59319127 0.3888886 -0.33931106 -0.15989122
-0.5371236 -0.6917753 -0.6362011 -0.6515905 0.4139032 -0.33298814 0.11148472 -0.017543435
-0.15407874 0.28764588 0.74009293 0.20590599 -0.4038275 -0.55293596 0.24205875 0.08703364

model/batch_normalization_7/FusedBatchNormV3 f4 [144]
00000000: 96fa 903e 1f22 393d 02e7 933d ac34 be3d
00000010: 74e9 a4bd 41a8 f93d 65b5 b7be eed6 87bd
00000020: b3de 1b3e 644e ac3c d983 2cbd 1ac4 3a3d
00000030: 4f10 993d 9767 863c 4cd0 b03c c0eb da3b
00000040: b12a 963d 31c1 05be 6357 46bd 8cab e93d
00000050: 28dc b93e e1b7 a03c f1fa dabd f48e 5ebd
00000060: 873c 853e 9060 21bd 600d ec3d 3e91 933d
00000070: a6f0 c13d 2931 85bd f9fd c63c d2a8 e2bd
00000080: 20f9 12b9 dfd1 4f3d acad b73d 11fc 2f3e
00000090: 18dc cb3d e519 31be ae11 4c3e b74b 9c3d
000000a0: 7c9f c83d b599 253e e6c0 35be eb64 54bd
000000b0: 6c8d 853e acd2 46bd b671 febc 9e37 7f3c
000000c0: 23d2 1b3e 0f16 64bd a89a 8dbd 6d18 633d
000000d0: ed91 ce3d 0cc3 263d 69d6 ec3c 5604 30be
000000e0: 2e4e edbc 0057 78be 8f5f 37bd ed57 0c3e
000000f0: 2f8d 7dbe 931b d43d 63e8 03bd abcb ad3d
00000100: 6c0a 5ebd c56d 1abd 8684 043e 41eb 383e
00000110: 440e ddbc 9852 ff3d 5ccd e1bc 80f1 103e
00000120: b207 533d e96c d4bd fcd7 a9bc ca14 3dbd
00000130: 1801 503e 007f 2a3e f049 ccbd ae81 27bd
00000140: d71a 333e 2a21 a8bc 064a 33bd 3c12 4b3d
00000150: 6ade 633e 177b 5bbd 6259 d93c b347 7b3c
00000160: b7a4 4d3d 2b12 833c bad7 973c 9e56 04bc
00000170: b2d9 4cbc bfc4 90bc f8e3 7dbd 7f39 c53d
00000180: 1947 01bd c270 03bc 36f2 1dbe 3912 0c3e
00000190: b836 053e f0da 83bc aefd d63d a33f cebd
000001a0: afdf 773d 080e 853d 708d 7ebd 2316 833d
000001b0: e1bf 2a3d e74b 29be 0bdc 37be 0d62 b23d
000001c0: fc69 38bd 1ae6 953d 6b07 103d 6be5 95bd
000001d0: 26ac 2b3b 6b02 a4bd 43da ac3d e86b c0bd
000001e0: 9c15 7dbb ac98 003e 102d 303d 0387 eabc
000001f0: 67c9 493d 0d55 893d 44eb 3a3e 42fa 3abe
00000200: 4649 8abd 4c08 c83d 22b1 88bc 63dd bfbd
00000210: d820 0abe fcbe 853e deaa 15be 7a58 a3bd
00000220: 9598 9dbe 7843 003e f33a 943d 31d4 643e
00000230: 420f 1fbd 589d 82bc 8272 a8bc f26a e73e
0.28316182 0.045198556 0.072217956 0.0928739 -0.0805234 0.12190295 -0.3588058 -0.066327915
0.15221672 0.021033473 -0.042117927 0.045597173 0.07473814 0.016406817 0.021583699 0.0066809356
0.073323615 -0.13061978 -0.048423182 0.11409673 0.36300778 0.01961893 -0.106923945 -0.05433555
0.2602274 -0.03939873 0.115259886 0.07205437 0.09469728 -0.06503517 0.024291025 -0.11067356
-0.00014016451 0.050737258 0.08968672 0.17186 0.09954089 -0.17295034 0.1992862 0.07631629
0.09796044 0.16171916 -0.17749366 -0.051854055 0.2608446 -0.048540756 -0.031060081 0.015577225
0.1521688 -0.0556851 -0.06914264 0.055443216 0.10086427 0.040713355 0.028910832 -0.17189154
-0.028967943 -0.24251938 -0.044768866 0.13705416 -0.24760889 0.10356822 -0.032204043 0.08486112
-0.054209158 -0.03770234 0.12941179 0.18058492 -0.026984341 0.124669254 -0.027563743 0.14154625
0.05152101 -0.103723355 -0.020732872 -0.046162404 0.20312917 0.16650009 -0.0997504 -0.040895157
0.17490707 -0.020523626 -0.043771766 0.049577937 0.22252813 -0.053584184 0.026531879 0.015336919
0.050205912 0.015999874 0.018535484 -0.008077292 -0.0125030745 -0.01767194 -0.061984986 0.09630107
-0.031561945 -0.008022489 -0.15424427 0.13678826 0.13009155 -0.016095608 0.10497604 -0.100707315
0.060516056 0.06496817 -0.062146604 0.064007066 0.041686896 -0.1653286 -0.17955033 0.08710108
-0.04502295 0.07319279 0.035163324 -0.07319149 0.0026195138 -0.08008274 0.084400676 -0.093955815
-0.0038617617 0.1255824 0.043011725 -0.028628832 0.049264338 0.06705675 0.18253809 -0.18259528
-0.06752257 0.097672075 -0.016686026 -0.09368398 -0.13489091 0.26122272 -0.14615962 -0.0797586
-0.30780473 0.12525737 0.07237806 0.2234657 -0.03883291 -0.015944168 -0.020562414 0.4519878

model/batch_normalization_8/FusedBatchNormV3 f4 [144]
00000000: a41d 2fbf 6d52 cd3e d490 c3be ced6 6d3e
00000010: 4411 6dbd 87ce b6bd a708 06bf d81b 373d
00000020: be8e d6be f3f0 3abd c402 de3e 3224 973e
00000030: 080f 4a3d e301 33be 0109 37be 2ba4 aebd
00000040: 143b a5bd f617 44bd 5f67 553e 34ce eb3e
00000050: 896b da3f 71f1 8cbe 6c67 59be e5ce cd3d
00000060: ca3a 30be 2b7b 18bd 5430 213f f46f 863f
00000070: f0a8 6dbc 2955 07bf fe8f bb3c 5b0e b73d
00000080: 47d3 06bf 905a ec3b f2ef 44be e410 2a3d
00000090: d669 7abe 0c16 b73c 60fc b63e 769d 023f
000000a0: 8562 cd3e 3097 17be db06 9cbe 089c 113e
000000b0: b1c5 0740 0007 d6be b4a1 f13e 678b a13e
000000c0: b399 923e f8a1 e3bd 10cf eabc 3ece dc3e
000000d0: 3c76 a7bf 0ba5 043d aa4f 00bf 408e b53b
000000e0: 925f 5abe 1fe9 bfbd b575 90be 66da e63e
000000f0: 62e1 833c bbea ecbe 9ba0 c03e 5c20 2e3e
00000100: 3fad d9be b94e 14bf cee1 95be a439 d1be
00000110: da43 3fbd 1241 ecbe 2a66 f5be 4654 1a3f
00000120: 0d8f 073f 3067 32be 6675 a33c e2b1 5bbe
00000130: 3652 f73e 8510 debe 20c8 95be 52fd d33e
00000140: bb51 7e3e 706a 91bc 5255 43be 3df9 893e
00000150: 164f 8d3e e845 cb3e 8d95 30be 17d0 31bf
00000160: 0cc6 ee3d 85b0 a5be b1c7 c3bd b132 3bbf
00000170: 38fc a03e 4bb5 c1be c250 cc3d c54a 7d3f
00000180: 80ed aabe c288 633e 6c57 423e ecde e03f
00000190: 202d f33c 924b 973f 923e 153f 4626 cebe
000001a0: c2b5 983e 2426 9dbd a3ef 16bf e247 9ebd
000001b0: 0a4a 613e b888 df3d 004a 703a a190 05be
000001c0: fb14 923e d477 773e 9c6a 553f 266c 50bd
000001d0: fa32 70bd 1d34 1fbe b8c2 febd 417e f9bd
000001e0: 2f2a acbe af34 853e f84f 4c3e 0cb3 e7be
000001f0: 393a 2cbe 4515 913f 7317 b83e 4e9a e73c
00000200: 8a7b b1bf 36c0 7d3e 32ff 1e3d 4ada c93e
00000210: 1009 123e 0b69 e73f 28b6 2d3d b7ba 9a3e
00000220: 5529 b8be c06b 21be 7f12 fdbe 85bd c53f
00000230: 07f4 62be b0bc 5ebe a46f f4be a5ad c03f
-0.68404603 0.40101948 -0.38196433 0.23226473 -0.057877794 -0.08926111 -0.5235695 0.04470429
-0.4190578 -0.045639943 0.43361485 0.29519802 0.04933074 -0.17481188 -0.17874528 -0.08527406
-0.08067909 -0.047874413 0.20840214 0.46055758 1.7064067 -0.27527955 -0.21230859 0.100492276
-0.17209926 -0.037226837 0.6296437 1.0502915 -0.01450561 -0.5286432 0.02289581 0.08938285
-0.52666134 0.0072129443 -0.19232157 0.041520014 -0.24454436 0.02234938 0.35739422 0.51021516
0.40114227 -0.14803767 -0.3047398 0.14219677 2.1214411 -0.41802216 0.47193682 0.31551668
0.28632888 -0.111148775 -0.028663188 0.431261 -1.3082957 0.03238396 -0.5012156 0.005540639
-0.2132552 -0.09370636 -0.28214803 0.450885 0.016098682 -0.46272835 0.37622532 0.17004532
-0.4251499 -0.5793262 -0.29273838 -0.4086429 -0.046695568 -0.46143395 -0.47929507 0.6028484
0.52952653 -0.17422175 0.01995344 -0.21454576 0.4830491 -0.43371978 -0.29254246 0.41404206
0.24835865 -0.017750949 -0.19075516 0.26947966 0.275994 0.39701772 -0.17244549 -0.69458145
0.11658868 -0.32361236 -0.095595725 -0.73124224 0.31442428 -0.37833628 0.09976341 0.98942214
-0.33384323 0.22220138 0.18978661 1.756803 0.029684603 1.1819937 0.582986 -0.40263575
0.2982617 -0.0767329 -0.58959407 -0.07728554 0.220009 0.10914749 0.00091663003 -0.13043453
0.28531632 0.24166805 0.833658 -0.05088439 -0.058642365 -0.15547223 -0.124394834 -0.12182284
-0.33625934 0.26016757 0.1995238 -0.4525379 -0.16819085 1.1334616 0.3595539 0.02827182
-1.3865826 0.24780354 0.038817592 0.39424354 0.1426127 1.8078932 0.042410046 0.30220577
-0.35969034 -0.1576376 -0.49428174 1.5448462 -0.22163402 -0.21751666 -0.47741425 1.5052992

model/batch_normalization_10/FusedBatchNormV3 f4 [144]
00000000: b468 80be feab 91bc 32da 683e c880 163e
00000010: c6b0 013e 7309 d33d 2b1c 0cbd 0801 4ebe
00000020: 6b7b 1cbe 1052 8b3c d433 27be 6654 1ebe
00000030: e776 523d 5272 893c 9158 b43d b179 11be
00000040: 59ab 363d e0ee fb39 f4e2 763d 0e31 1fbd
00000050: c2bb ae3d 26b0 c83c 4da3 31be 9182 8f3e
00000060: 9215 03be 1caf 35be 9150 d2bd 9fde 53be
00000070: 79dc 10bd a5a1 3ebe eedc a23d 6dcf 0bbe
00000080: 012b 4ebd b81e 3ebe 27c8 81bd c594 66bd
00000090: 469e 2cbe ff8a 2fbd 7ad0 373e 2d32 d53c
000000a0: b317 25bd 9fb9 fabd 07cd d4bc 3750 c9bd
000000b0: 0e0f 43be 7e41 a3be 677c 843c 0e80 df3e
000000c0: ae0e 33be 902f 023d 067e 47bd 45b0 c0bd
000000d0: a3bd 97bd 763c 1b3e 1eeb da3d 9d5c 1a3d
000000e0: 06d7 00bd 01af d03d 7816 96be 0648 a9bd
000000f0: 7d8a 82bd e091 98be fc70 b2bd ac53 1bbd
00000100: 5829 13bc 45e2 283d 5db9 9cbd df6c bd3d
00000110: 1a31 8abd 129f a3bc d890 b5bc 4e85 053f
00000120: 8ae6 88bd 1ae4 11be 2e29 913c 0440 09be
00000130: b2ff 76be d14e af3e 07f3 d9bc c802 24bd
00000140: b95b 99be bf24 98be 4473 8ebd 9b4b 3abe
00000150: dff1 f43c fdf0 19bc cc7a 2dbd fe14 1ebd
00000160: ded8 593e b9d7 e83c 65f3 ce3e d6e9 793d
00000170: ae11 2f3d 8bc0 26be 61ae b8bd d2e3 50be
00000180: 4604 3d3d 1dd2 46bd 4074 fbbd ca19 263f
00000190: 1c2f 593e 49d7 84bc 8a21 143e 853c b0bd
000001a0: 0587 04bd 1657 30be 4c8b 90bd d609 90be
000001b0: 9254 23be d383 a53e 08e2 a83d 0440 533c
000001c0: 7870 fcbd 3831 07be 9c3b a6bd bc8c 98be
000001d0: a06d 9b3c 1996 88be 4a7f 44bc 3d1d 103e
000001e0: 0c4c 63bd 073e c4bd ffc9 93be 2d33 a8bd
000001f0: a508 293f 1aec 85be 2b29 043f 8f2f 45be
00000200: 2f6e 1bbd ef02 f1bd 10e3 05be 7c0d d5bd
00000210: 7609 4bbe 1b7a fb3e 54d6 713e 8a6a 4b3c
00000220: fbf7 ffbd 5063 09be 3604 f93e 12b4 be3d
00000230: 63f5 d03d 83e9 54be a52c 44be c16b 693d
-0.25079882 -0.017782208 0.22739485 0.14697564 0.1266509 0.10304537 -0.03420655 -0.20117581
-0.15281455 0.017006904 -0.16328365 -0.15461883 0.051382925 0.016778145 0.08805955 -0.14206578
0.044597004 0.00048052426 0.060275033 -0.03886514 0.08531906 0.024498057 -0.1734745 0.28029302
-0.12801197 -0.1774258 -0.10269273 -0.20690392 -0.03536651 -0.1861635 0.07952295 -0.13653345
-0.05033398 -0.18566406 -0.06337004 -0.05629422 -0.16857252 -0.042857166 0.17950621 0.026024902
-0.040305804 -0.12242436 -0.02597667 -0.09829753 -0.19048712 -0.31885904 0.0161726 0.43652385
-0.17486069 0.03178364 -0.04870417 -0.09408621 -0.07409217 0.15159783 0.10689376 0.03768598
-0.031455062 0.10189629 -0.29314017 -0.082656905 -0.06374071 -0.29798794 -0.08712956 -0.037921593
-0.008982025 0.041231412 -0.07652543 0.09249281 -0.06747647 -0.019973312 -0.022163793 0.5215653
-0.06684597 -0.1424717 0.017719831 -0.13403326 -0.24120978 0.3423982 -0.026605142 -0.040041715
-0.2995279 -0.29715535 -0.06955579 -0.18192904 0.02990049 -0.009395835 -0.042353436 -0.03859424
0.21274135 0.028423177 0.4042007 0.06101402 0.04274147 -0.16284387 -0.09017635 -0.20399407
0.046146654 -0.048540223 -0.12278032 0.648831 0.21209377 -0.016215937 0.14465919 -0.08605293
-0.032355327 -0.1722072 -0.07057819 -0.28132504 -0.1595023 0.32327136 0.08246237 0.0128936805
-0.12326139 -0.13202369 -0.08116838 -0.29794872 0.018973172 -0.26677015 -0.011993239 0.14073654
-0.055492446 -0.09582143 -0.28865048 -0.08212886 0.66028816 -0.26156694 0.5162532 -0.19256423
-0.037946876 -0.11768138 -0.13074899 -0.104029626 -0.19827828 0.49116597 0.23616916 0.012415538
-0.124984704 -0.13416791 0.48636025 0.093116894 0.10203054 -0.20792203 -0.19157656 0.056987528

model/batch_normalization_11/FusedBatchNormV3 f4 [144]
00000000: 16f1 d93d fd53 ddbe baab 3a3e 7325 ee3e
00000010: 4ec7 ef3e a7b9 0e3f 199e edbe 0695 ecbe
00000020: a606 a83e 8858 30bf 1cd5 2b3f ce5d 2bbf
00000030: f539 2b3f 10b5 ccbe 2be4 cfbe 59ab 173e
00000040: b5df 203e 0df9 2abf 2455 53bf f4d4 00bf
00000050: 0ffa 013f 38af 99bc 5590 52bf 40a1 da3f
00000060: 0623 ebbe 83e8 183f 7860 acbe 5810 29bf
00000070: 44a0 f4be adf8 04bf de5f b13d a587 ecbe
00000080: 0537 e33e b186 18bf 3887 56bf 6a60 d13e
00000090: 4dc5 d8be 30e3 8a3c a597 953e 0eb6 d6bd
000000a0: 433d d93e c49b 6fbd 5eb4 adbf 7776 b4be
000000b0: bbc2 dcbe 8013 d9be 568a 413f d46c 1540
000000c0: 5eec e3be 25a2 fb3e b395 853e ca09 81bf
000000d0: 61cb fc3e 4340 b03f ccbf 36be f895 8d3e
000000e0: 690a afbe 2dda 843f 4827 f2be 3d9d fabe
000000f0: 98e1 6ebf 781a 1fbf 3ea1 3fbf 3640 a2be
00000100: ffc5 10bf 99be 2cbd ea09 fabe ad77 763e
00000110: 626a 82bf 2a31 bb3e 3134 de3e c99d 0040
00000120: a8d1 9dbe 42cd 20bf 9e6f 8ebe 2885 9e3e
00000130: 446f 443e ded1 f23f 2e9d 183f 31c8 1ebf
00000140: 0a82 0dbf 56eb c5be 645e 4fbe a12c 2cbf
00000150: e8f3 8fbf 737f 1f3f 592f 46be e5c2 753e
00000160: 49a9 bf3f d95e dd3e 94c0 5bbc ae3d 0c3f
00000170: f525 d43e a0f5 453d 7355 e5be d9f4 423e
00000180: d45c cf3e 61c1 ef3e 50b1 fdbe 14f5 bb3f
00000190: a9ff 003f 118d b33e 0d79 003f 6a5d 39bf
000001a0: 90bc c5be caee 29be e551 e73e 469f 06bf
000001b0: 3fd2 8b3e 58b2 7c3f 677d 8f3e ae3b 6abf
000001c0: 109e 21bf 3111 4cbf d26d 2ebf fc6b 2abf
000001d0: 04e2 413f 1071 e5be cc2b 4ebf 565a 1e3f
000001e0: 2889 203d a2bf b43e b8e2 4a3f a420 04bf
000001f0: dadd 4640 e55e fbbe f5eb 953f 404d a7be
00000200: 9eb2 0ebf e20c 0a3f aca4 21bf daba 33bf
00000210: 0cf8 babe 0fe5 433f 9994 8c3f 2ccd eebe
00000220: 9cbc 173f 2a59 5bbf 7d1c 953f 75e8 d13e
00000230: 9a7b c63e fc9f edbe f2d7 65be 8775 a43e
0.106416866 -0.4322814 0.18229571 0.46512946 0.46831745 0.55752033 -0.4640968 -0.46207446
0.32817572 -0.6888509 0.67122054 -0.6694001 0.6688531 -0.3998189 -0.40603766 0.14811458
0.15710337 -0.6678627 -0.8255179 -0.5032494 0.50772184 -0.018760309 -0.82251483 1.708046
-0.45925158 0.59729785 -0.3366735 -0.66040564 -0.47778523 -0.5194195 0.08660863 -0.4619724
0.44377914 -0.5958052 -0.8380008 0.4089387 -0.4233803 0.016954035 0.29217258 -0.10483943
0.4242955 -0.05849816 -1.3570669 -0.35246632 -0.43117318 -0.4239769 0.7560171 2.3347673
-0.4451627 0.49147144 0.26090774 -1.0081112 0.49373916 1.3769611 -0.17846602 0.2765348
-0.3418763 1.0379082 -0.47295594 -0.48948088 -0.9331298 -0.62149763 -0.7485541 -0.31689614
-0.5655212 -0.042173956 -0.4883569 0.2406909 -1.0188715 0.36560947 0.43399194 2.0096304
-0.30824018 -0.628132 -0.27819532 0.30960965 0.1918307 1.8970296 0.5961484 -0.6202422
-0.5527655 -0.3865611 -0.20250851 -0.672556 -1.1246309 0.6230385 -0.19353999 0.24000128
1.4973537 0.43236426 -0.013412613 0.54781616 0.4143521 0.04832995 -0.44791755 0.19038714
0.4050051 0.46827224 -0.4954934 1.4684167 0.50390106 0.35068563 0.5018471 -0.72408164
-0.38620424 -0.16594997 0.45179668 -0.5258678 0.27308843 0.9870963 0.28025362 -0.91497314
-0.6313181 -0.7971373 -0.6813632 -0.6657102 0.757355 -0.44812822 -0.8053558 0.6185659
0.039193302 0.35302454 0.79252195 -0.51612306 3.1072907 -0.49095836 1.1712633 -0.32676125
-0.557413 0.5392591 -0.63141894 -0.7020699 -0.3651737 0.7652139 1.0982848 -0.4664091
0.5927217 -0.8568293 1.1649319 0.40997663 0.38766176 -0.4641112 -0.22445658 0.32120916

model/batch_normalization_13/FusedBatchNormV3 f4 [256]
00000000: c2c2 153d 9d30 c33d c1a8 a83d bb07 cfbb
00000010: ce21 39be c599 723e 3518 21be 0cb7 963d
00000020: 182f 8f3e 1a3f 493d 1027 a2bd 6c89 79be
00000030: d2cc 30be 9ac8 84be 0f8f 3ebb 76c3 a73e
00000040: 79ed 3cbe ff7f ff3d fb2c 2f3d cf17 28be
00000050: 1669 933d 57c7 933e 5f1b d6bd 8106 253d
00000060: 8c14 ad3d 246f 53bc ca39 e03d dfd8 d0bd
00000070: 8ec7 4c3e 4655 cf3d 46c7 233e 04c8 f83c
00000080: 4091 07bd 16d0 6dbd 3175 53bc b608 83bd
00000090: 00d1 67bd 7f87 0abb 55f4 74be 712c 9a3d
000000a0: a8ff 10be a712 dd3d 40a1 4b3c 3c10 18be
000000b0: 4e1d 62bc 3d6d 17bc 2fbb dabc d03d e83a
000000c0: d95a 1bbd 47dc 773e 3b7d 83bd 0bc6 e2bd
000000d0: 49b4 a73e d54f a43d 14fd 2f3e 88dd 86bd
000000e0: 45fd 22bd 6e55 ffbc 3ac4 d0bd fdc9 b63d
000000f0: d0c9 3a3e 1046 a2bc 4c11 e3bd 2542 35be
00000100: 9823 a1be 6a5e 76bc c958 b03d cdc9 09be
00000110: 3898 233e acbf 323c df36 4abe 6910 f53c
00000120: 0547 10be 8231 0f3d 67b6 803d 6e56 f33d
00000130: b99c 18be e798 553d 7320 dc3d 9781 0ebe
00000140: 2881 fe3d c8d5 1f3e 5f71 24bd 10ae 8bbb
00000150: e345 6a3d f2c2 093e 0ce5 f9bd 4262 b7bd
00000160: e768 753e 3871 47be 3171 983d 8523 9e3d
00000170: 4177 55be c4ec 1ebd 3b36 83bd fb9d 16bd
00000180: 2207 9dbd 37a6 2e3e d766 233e 8743 bcbe
00000190: 8df0 1fbe b0e3 363e c640 3ebd aaee 513d
000001a0: 5a35 f9bd ef37 5cbd 2b7d 6ebd 682a 66ba
000001b0: b719 69bd 5be4 183e f14e ab3d 63c1 27bd
000001c0: a524 7fbd 5e1e 41bc 9e11 963e 381c 01be
000001d0: dff1 babc 702c ffbb 3591 ac3c 39f8 913d
000001e0: 7c4b e63b 2625 26bd d1d5 f13d 5ba3 8fbd
000001f0: 1d8c 0abf 14db b8bc 26bc 023d e168 233e
00000200: 12b4 acbd 9db0 fe3e da95 ffbd 61c0 42be
00000210: 7b1a d6bd 630d 9dba 0014 47bd 8f89 09be
00000220: a5b2 2fbd 2e7a 1b3e d7a8 b3bc 9c7b 3b3c
00000230: ee31 f8bd c80c 50be 45b2 d8bd 4031 babd
00000240: 2685 fa3d 1ddb 11bd f54f d83d 13fd 273e
00000250: 222d 12bd 16d0 26be 9c92 2f3e d53a 713d
00000260: 14f4 c43c ec1d 29be edfb 4abc 4a84 403d
00000270: 3edd 70bd bbd6 793e bb69 db3d 4d8b d53d
00000280: bb1e 8c3d 3d7a 80bd 97b2 b83d 5820 a33d
00000290: 0a08 ab3d 1e95 8e3d 9484 643d 952a 0c3d
000002a0: 001a c93c fa92 0dbe a114 4b3e 6f25 8e3d
000002b0: 8643 673e 824c 873e 87bd 27be 56f1 d7bc
000002c0: ca92 bfbb dd6c 693d 4f2d 81bd e8f1 d5bc
000002d0: 1540 013c 425a 4e3c 69bb ba3d 8d0f 9e3d
000002e0: 3711 ecbd a5db 953c b5fa d9bd ca93 e2bd
000002f0: dc34 c03c bfca 033d 20eb b8bc 5efd 563c
00000300: 6908 b43d 6bdf 95be 87f3 2cbe 282f 09bd
00000310: c871 f93c 3c00 4f3e 3159 903e 746a a9bd
00000320: 1a47 2ebb 232c 7c3d d56a 4f3e 47e9 4a3d
00000330: 215e 213d f3ee 123e 6454 8d3d 88b8 e73d
00000340: bd1d 803c d228 22bb 3b49 9fbc fc1e d8bd
00000350: 7100 b3bd 6a5d 13bd c585 2f3d 1a3d d93c
00000360: f1cd 21be 0def 90bc 6e9f 1abe 5d77 ffbd
00000370: 0163 023e 079b 943b b52d 5c3d bce4 86bd
00000380: b994 003d da02 923a 8b04 a5bd 08af 21bd
00000390: 250f 163c ba29 c43d fc0e b43d d2e8 94bd
000003a0: 003b d7bb 1a2e fbbc 20f3 e43d 89b3 90bd
000003b0: d872 44be 2960 92bd 7a82 143d 8f35 29be
000003c0: fadc 03be 8ad0 7ebd 63de dfbc de6e 773d
000003d0: 67c7 c4bd 560d aebd 6793 193d bc0a c9bd
000003e0: b73a 2fbe 093d d53d 4be2 fd3d 461d d53d
000003f0: b9b1 e83d 29aa a33e 94c1 693e fa6a 80be
0.03656269 0.095307566 0.08235312 -0.00631806 -0.18079302 0.23691471 -0.1573189 0.07359132
0.27965617 0.049132444 -0.07917607 -0.24368829 -0.17265633 -0.25934297 -0.0029076969 0.32766312
-0.18449964 0.12475585 0.042767506 -0.16415332 0.07197778 0.28863022 -0.10454439 0.040289406
0.08451185 -0.012904916 0.109485224 -0.10197615 0.19997999 0.101236865 0.15993986 0.030368812
-0.033097506 -0.058059774 -0.012906359 -0.06398146 -0.056595802 -0.002113789 -0.2392133 0.07528008
-0.14160025 0.10794573 0.012428582 -0.14849943 -0.013800932 -0.009242353 -0.026700584 0.0017718617
-0.037928436 0.24205123 -0.0642037 -0.1107293 0.32754734 0.08023039 0.17186385 -0.065852225
-0.039792318 -0.031168666 -0.10193677 0.08925245 0.18241048 -0.019808799 -0.110872835 -0.17701013
-0.31472468 -0.0150371585 0.086106844 -0.13455887 0.15976036 0.010909956 -0.19747494 0.029915052
-0.14089592 0.034959324 0.062847905 0.118817195 -0.14903535 0.052147772 0.10748377 -0.13916622
0.12426978 0.15608895 -0.04014718 -0.004262693 0.057195555 0.13453272 -0.1220189 -0.08954288
0.23965798 -0.19476783 0.074434645 0.077216186 -0.20846273 -0.038800016 -0.06406828 -0.036771756
-0.07667376 0.17055593 0.15957199 -0.3677027 -0.15619107 0.17860293 -0.04644849 0.051253
-0.12168379 -0.05376428 -0.05822484 -0.0008780123 -0.05690929 0.1493086 0.08364666 -0.040955912
-0.062290806 -0.011787025 0.29310316 -0.12608421 -0.022820411 -0.00778728 0.021065334 0.07127423
0.0070280414 -0.04056277 0.1180836 -0.070135795 -0.54120046 -0.022565402 0.031917714 0.15957977
-0.08432783 0.4974412 -0.12479754 -0.19018699 -0.104542695 -0.0011982139 -0.048603058 -0.1343138
-0.042894978 0.15183327 -0.021931095 0.011443045 -0.12118898 -0.20317376 -0.10580877 -0.09091425
0.12232427 -0.035609353 0.105621256 0.16405134 -0.035687573 -0.16290316 0.17145771 0.058893997
0.024042167 -0.1651532 -0.012389165 0.04700116 -0.058804743 0.2439832 0.10713526 0.1042696
0.06841799 -0.06273315 0.09018438 0.079651535 0.08351143 0.069620356 0.0557905 0.034220297
0.02454853 -0.13825598 0.19832088 0.06940734 0.22584352 0.26425558 -0.16380893 -0.026360195
-0.005846356 0.056988586 -0.0630747 -0.026116326 0.0078888135 0.012594761 0.09117777 0.0771781
-0.11526721 0.018293211 -0.10643522 -0.11063345 0.023462705 0.032175776 -0.022573054 0.013121931
0.087906666 -0.29272017 -0.16889773 -0.033492237 0.030449763 0.20214933 0.28193048 -0.082722574
-0.0026592673 0.06156553 0.20255597 0.049538877 0.03939641 0.14348964 0.06900862 0.113144934
0.01563918 -0.002474357 -0.019444099 -0.10552785 -0.087403186 -0.03597776 0.042852182 0.026518393
-0.15801217 -0.017692113 -0.1509988 -0.124739386 0.1273308 0.0045350823 0.053754527 -0.06586596
0.031391833 0.0011139766 -0.08057507 -0.039473563 0.009158884 0.09578271 0.087919205 -0.072709695
-0.0065683126 -0.030661631 0.11179185 -0.070654936 -0.19184434 -0.07147247 0.036257245 -0.16524337
-0.12877265 -0.062210597 -0.027327722 0.060408466 -0.096083455 -0.084986374 0.03749409 -0.098165005
-0.17112242 0.10412032 0.123966776 0.10405974 0.11362023 0.3196576 0.2282775 -0.25081617

model/batch_normalization_14/FusedBatchNormV3 f4 [256]
00000000: 1a74 293f 76a5 d03f ff3e 6f3f a426 fbbe
00000010: 1e41 aebe 791a 00c0 4d94 cb3e c58b f1be
00000020: fe88 ec3e 88d1 4ebe 5e07 55be 17f1 f6be
00000030: e587 d93e 428b 8abe 9004 e5be 2cae c23d
00000040: 582b 22bf ad19 263f 0c10 b43e ce12 8cbd
00000050: 2861 2b3f 42fc b0bf e528 aebe 7669 103d
00000060: fa37 16bf fbca e0bf 165d 003f d864 813f
00000070: d8fa 86bf 4b32 1a3f 82d9 dd3f e460 4b3f
00000080: 1ae7 37be 0095 63be 0057 4f3f 3d62 c43e
00000090: 0bb7 7c3e be59 e9be 18c5 e0be d0ee 993b
000000a0: 8419 c8be c90d 893f 5eba febe 6add 733f
000000b0: e6e0 be3e b750 4cbf 57ad 043f 4426 b53f
000000c0: 004e 8c3c 1a91 783f 1268 7b3f fca2 78be
000000d0: 34dc fb3f 8c7e aa3e 562d 813f 4dec cb3e
000000e0: 6aa4 333f 7a34 1abf d0c7 26bd 1af7 46bf
000000f0: 4f2a 09bf 9e0d 3f3f 72d1 233f 36ba d3bd
00000100: 6a19 ce3e 7a8b c3be d877 c83e a9d0 ac3e
00000110: cec0 843e 76f3 4ebe ae9d 3a3f 1e95 623f
00000120: 6641 76be 6286 e5be ae3c b43f 4c5c 2ebf
00000130: b5b9 3dbf 1729 c63f 8ad6 6fbf 004f 76bf
00000140: 4fe7 073e b473 af3e 70cf 31bf bff7 833f
00000150: c18c f9be 94ec 06bf 279c 8dbe c70e 833f
00000160: 06bd 823e 0375 0fbf 9451 1b3e abba e13e
00000170: 15dc 2ebe 295b a23e bf10 c4be 5a20 19bf
00000180: 0fc2 e73d 367c 833f 956c b9bd a385 b6be
00000190: 6640 493d e539 b93f f29f b9be 6ce7 ee3d
000001a0: 456b 9a3f 3500 03bf ce24 0bbf 7c62 cebe
000001b0: 4084 023f a944 9d3f b163 89bf 4a32 1cbe
000001c0: f152 0e3f 805e 3d3f 0b14 be3f 810b 71be
000001d0: 3cea 33bf 6447 21bf 2b02 e7be 405e 663d
000001e0: 4003 273f c738 313f 7d17 353d 9fce f2be
000001f0: 4889 b7be ec67 a2be aa80 513e 8ad4 bd3f
00000200: 3e6f 523f 8370 0e40 beda d13d 6821 0e3f
00000210: 3d1c 3b3f a2f4 f33d 60cf 4d3f 276b ea3e
00000220: 1bcf 7a3f 3bfc 783e 2e81 f83e cad2 ba3e
00000230: 823b dc3e 3385 643e a676 9abd 163b 773f
00000240: a900 53bf 222b 133f 3ef8 e33f c843 893f
00000250: 002c 35bf 483b c0bc 5eb4 933f 669b 08bd
00000260: 0251 563f 59b4 54be 9a87 babd b4c3 aebe
00000270: a15d b53e 43f4 2a3f f777 bd3f 5419 703f
00000280: c9c8 acbe 58b0 193f 17fe d4bd 56be 93be
00000290: af59 993f 3704 773f 53f4 a83e d210 14be
000002a0: ec3b b6be d9d8 913f 3de3 19be 44a5 d3be
000002b0: 75bb 5c3f c247 aa3f c2ee e63e 87c2 093f
000002c0: 82d8 243f f8ea 1cbf 1372 443f dcd2 8bbe
000002d0: 08d0 463f 9dce 003f 4532 5ebf 1865 5ebc
000002e0: 6ec6 ec3e 127e 33bf b8d0 773f 1716 f23e
000002f0: 81ae 513e dbcb fabe 53bc 38bf 243f 143f
00000300: fd22 ab3f d6dc cfbe cf16 383f fea5 0ebe
00000310: 8009 493f 55c7 33bf c664 923f 6952 ffbe
00000320: 1eb4 053e 76bd 13bf 1f77 263f 9065 e33e
00000330: e985 d33f 7b8a 853f a2c8 cebe c984 473e
00000340: 8ab1 fa3e 82f7 f5be e9bd e4be c6dd a73e
00000350: 5afd d2be 2f8f d7be 2d05 16be 7319 b2be
00000360: 3cab 833f 111f 18be 42f5 883e 0005 43ba
00000370: 9d02 7dbf b73a 123f 5eef 7f3f 9eaf 0fbf
00000380: 7c57 0dbf f493 01be 0072 dcbd 926d 143d
00000390: 318a 093f b546 adbe 5582 d0be 55fa babe
000003a0: e85f 403f 30a5 1d3f 94aa be3f 808e 0abe
000003b0: fa40 19bf d776 62bf 4a95 893d aed0 1c3f
000003c0: e8e0 8c3f 5d96 af3e 90ce b43e cafb a6be
000003d0: 81e1 d4be 01f0 433f fdbf 3d3e 0c51 3bbf
000003e0: 4c82 a8be 89b7 cdbe 593b c3be 3e21 343f
000003f0: 4d65 2a3c 4da4 c73f 275d 393f c5f8 babe
0.6619278 1.6300495 0.934555 -0.49052918 -0.34034055 -2.0016158 0.39761582 -0.47176948
0.46198267 -0.20197117 -0.20803592 -0.48230812 0.42486492 -0.2705937 -0.44730043 0.09505877
-0.6334739 0.6488293 0.35168493 -0.06839524 0.66945124 -1.3826983 -0.34015575 0.035256825
-0.58679163 -1.7561945 0.5014204 1.01089 -1.0545301 0.6023299 1.7332003 0.7944472
-0.17959252 -0.22224808 0.80992126 0.383562 0.246792 -0.4557628 -0.4390037 0.004697658
-0.39081967 1.0707332 -0.49751562 0.95259726 0.3728096 -0.7981066 0.51826996 1.4152303
0.017127037 0.9709641 0.98205674 -0.24280924 1.9676576 0.33299673 1.009196 0.3982872
0.7017275 -0.6023632 -0.0407179 -0.777208 -0.5358018 0.74630153 0.63991463 -0.10338251
0.40253764 -0.3819235 0.39153934 0.33752945 0.25928348 -0.2021006 0.7289685 0.88508785
-0.24048385 -0.44829088 1.4081018 -0.68109584 -0.7411149 1.548129 -0.93686736 -0.96214294
0.13271831 0.34267962 -0.6945715 1.0309981 -0.487402 -0.5270474 -0.27658197 1.0238885
0.25534838 -0.5603792 0.15167838 0.4408773 -0.17076142 0.31710175 -0.38294026 -0.5981499
0.113163106 1.0272281 -0.090539135 -0.35648832 0.04913368 1.4470793 -0.3625484 0.11665234
1.2063986 -0.5117219 -0.54353034 -0.40309513 0.5098305 1.2286578 -1.0733548 -0.15253559
0.5559531 0.7397232 1.4849867 -0.23539545 -0.7027929 -0.6299956 -0.45118842 0.056242228
0.65239334 0.6922726 0.044211853 -0.47423264 -0.35846925 -0.3171991 0.20459238 1.4830487
0.8220099 2.2256172 0.102468 0.55519724 0.73089963 0.119118944 0.80394554 0.45784876
0.9797227 0.24314968 0.48536056 0.36488944 0.4301415 0.22316436 -0.07542162 0.96574533
-0.8242288 0.5748769 1.7810133 1.072381 -0.70770264 -0.023465768 1.1539419 -0.033351324
0.8371736 -0.20771922 -0.09107895 -0.34133685 0.35422996 0.66778964 1.4802235 0.9378865
-0.33746937 0.60034704 -0.10400026 -0.28856152 1.1980494 0.96490806 0.32998905 -0.14459541
-0.35592592 1.1394302 -0.15028091 -0.41337025 0.86223537 1.3303149 0.45104033 0.5381245
0.64392865 -0.61296034 0.76736563 -0.2730931 0.7766118 0.50315267 -0.86795455 -0.013573907
0.4624514 -0.70114243 0.96802855 0.47282478 0.20476724 -0.48983654 -0.7216236 0.57908845
1.3370053 -0.40598172 0.71909803 -0.13930508 0.7853012 -0.7022603 1.1437004 -0.4986756
0.1305699 -0.5771097 0.65025514 0.44413424 1.6525241 1.0432886 -0.40387446 0.19484247
0.48963577 -0.48040396 -0.4467614 0.32786387 -0.41208917 -0.42101428 -0.14650412 -0.3478504
1.0286632 -0.14855601 0.26749617 -0.0007439405 -0.9883211 0.5712084 0.9997462 -0.56127346
-0.55211616 -0.12654096 -0.10763931 0.036237307 0.5372649 -0.33843008 -0.40724435 -0.36519113
0.7514634 0.6158018 1.4895806 -0.13530922 -0.5986477 -0.88462585 0.06717928 0.6125592
1.1006136 0.34294406 0.35313845 -0.32613975 -0.41578296 0.7653809 0.18530269 -0.7317054
-0.3291191 -0.4017909 -0.38131216 0.70363224 0.010400129 1.5597016 0.72407764 -0.3651792

model/batch_normalization_16/FusedBatchNormV3 f4 [144]
00000000: 74f8 8f3a a627 5dbd 4802 aa3d 60fe 02bd
00000010: e9d1 1a3e a202 55bd 2549 013e 614b 9a3d
00000020: c74c d83d 4e7e acbd 3a19 343e 0cb0 fdbd
00000030: 4424 9b3c 3034 543e f9a2 09bd 9c5b 0abe
00000040: 976b 4a3e 97b9 ab3d 330e 8ebc b7c7 ee3c
00000050: b41e 0abd 5208 313e e0dd 6e3d 9659 17be
00000060: 043f ecbd 568a e6bd 6c46 243c 9485 753e
00000070: b14e 453e 65ad c7bd a9b8 943d 31e5 38bd
00000080: 5ad9 d53d ab37 133e d6fb febd de76 d4bc
00000090: 4938 873c 06c7 2f3d 6875 f3bb 6fb5 a2bd
000000a0: d6cc 35bd 3207 c2bc 9af8 2dbd 1383 3cbc
000000b0: 13d8 88bc fa5f e73d 9499 e93d a707 83bb
000000c0: c6a1 c33d edc3 533c 802e 09be 2816 1abe
000000d0: ad2d 49be 6ead 2b3e efd9 b43b 59a4 9c3b
000000e0: 03f5 033e 10ae 4fbe 1208 e539 d4ff eabd
000000f0: 2bbe 9bbd 2061 eebd f3f5 82bd 730e 11bd
00000100: 0e4b c0bb b855 893c 7884 eabd c9a5 033e
00000110: 4a01 2bbe 386f 053e 1964 52bd 3d73 a2be
00000120: e15e 143e 5f65 fa3d f629 81bd 7d64 3c3e
00000130: 9d57 15bd 7d6b 8cbd 7974 c33d 3fc3 a93b
00000140: 04f8 2c3b 19d4 283e 4bbf 0cbe 2526 1abe
00000150: b908 76be 31b8 393d b4bd 88bd 4ab6 2abe
00000160: 3300 d53d c417 1c3c 4fa5 0e3e 5493 97bd
00000170: 1eee 143e e7dd cb3d ea82 5c3d 3638 01bc
00000180: 41f5 bbbd 2d61 713e c2ff 74bd 76d6 54bd
00000190: 3c8d 8a3d 9ca3 6fbd a862 f13d c2bb 6f3c
000001a0: b942 c6bd af5b 0a3e 6918 bb3d 942d e43d
000001b0: 46b0 07be b8af 1e3e d7a8 59be fe76 a53c
000001c0: 6c6e 6a3a 320b 82bd c920 103e 7e8b 02be
000001d0: 2fcd 3f3e d4c3 853d 8003 193d 07c8 37bc
000001e0: 4f7c 59bd 714c 00be ed9c 063e aa5c 4bbe
000001f0: 6d81 8a3e 050e a13d e401 0d3e 3ea9 d13d
00000200: f05d cebc b4c6 823d 8f59 3fbb 1c0a 273d
00000210: 963d 203e 843b 603e b9b7 513d 2c1e 29bd
00000220: 4596 013e 0aa5 333e 80da 8bbd 4723 22bd
00000230: 2859 463e c252 103e daf0 ce3c 3f0a 803e
0.0010984079 -0.05399289 0.08301216 -0.031980872 0.15119137 -0.052004464 0.12625559 0.07533909
0.10561519 -0.08422528 0.17587748 -0.12387094 0.018938191 0.20723033 -0.03360269 -0.13511509
0.19767605 0.08385008 -0.017340755 0.029147966 -0.033720687 0.1728833 0.058317065 -0.14780268
-0.11535457 -0.11256854 0.0100265555 0.23976737 0.192683 -0.09749869 0.07261784 -0.04514045
0.10441847 0.14376704 -0.12450378 -0.025935587 0.016506331 0.042914413 -0.0074297674 -0.07944762
-0.0443848 -0.023685072 -0.042473413 -0.01150586 -0.016704595 0.11297603 0.11406246 -0.003998715
0.0955234 0.01292513 -0.13396645 -0.15047514 -0.1964633 0.16765377 0.005519144 0.004780334
0.12886433 -0.20281243 0.00043684297 -0.114745766 -0.07604631 -0.11639619 -0.06394567 -0.03541417
-0.005868322 0.016764507 -0.11451048 0.12856211 -0.1669971 0.13030708 -0.05136499 -0.31728545
0.14489318 0.12226366 -0.063068315 0.18397708 -0.036460508 -0.06856439 0.095437 0.005180746
0.0026392946 0.16487159 -0.13744847 -0.15053613 -0.24026765 0.045341674 -0.06676808 -0.166711
0.104004286 0.009527151 0.13930248 -0.074011475 0.1454396 0.09954434 0.053835787 -0.007886937
-0.09177638 0.23572226 -0.059814222 -0.05196234 0.067652196 -0.05850564 0.11786395 0.014632167
-0.09680695 0.13511537 0.09135515 0.11141506 -0.13250837 0.15496719 -0.21255814 0.020198341
0.0008942846 -0.063497916 0.14075007 -0.12748525 0.18730615 0.06531492 0.037356853 -0.011217124
-0.053097066 -0.1252916 0.131458 -0.19859567 0.2705187 0.07864002 0.13770252 0.102373585
-0.025191277 0.06385556 -0.0029197668 0.040781125 0.15648493 0.21897703 0.051200602 -0.04128854
0.1265498 0.17543426 -0.06828785 -0.039584424 0.19369948 0.1409407 0.025261331 0.25007817

model/batch_normalization_17/FusedBatchNormV3 f4 [144]
00000000: 2780 003f 54cd 0b3f 5b07 103f 5a8b 0f3f
00000010: 9a92 cabf 56cd fe3e 282c 9dbe c27c 743f
00000020: bbad 1cbf fe55 2c3f d40e 84bf d904 05c0
00000030: 1ba7 173f 1133 a0bf 89ea 03bf d661 49be
00000040: 3137 22bf 3418 36bf cebd 05bf 5f67 9abf
00000050: 5e0f 00bf a844 b7bf f423 a23f 29a4 263f
00000060: 5007 9d3e d832 0d3f 414d 323f 5793 013f
00000070: ca9d 7b3e 8081 42bf 594d 18bf 7f99 473f
00000080: 61ec 033f d58f 12bf ff2b 02bf 2bcd 95be
00000090: 026a 26bf dc93 f93d 32ae 70bf e724 abbe
000000a0: b463 b63e 98ff bdbf e736 88bf ac7d 5b3f
000000b0: 2140 513f 3088 b9bf 6010 aabf 507b 223f
000000c0: 6231 a83f af84 873f a23c c9be 52b2 513f
000000d0: f071 9fbd fc55 8a3f 7c87 cd3e 7ede 3c3f
000000e0: 3943 1cbf 3061 90be 6973 473f b4ca 79bf
000000f0: b902 1ebf c8c7 22bf 5094 843f 1149 26bf
00000100: 9a74 353f e677 7e3f c0a8 b8bf 038f 053f
00000110: 1fdd 17bf 4026 2bbe 76dc 003f 4914 02bf
00000120: 7643 203f 6d37 6dbf fae8 143f fcc4 b73f
00000130: 77b9 5abf 128a 4d3f d29d 3dbd 1451 40bf
00000140: abd6 30bf 7163 a8bf 2213 433f bb29 233f
00000150: 5033 633f 177a 5f3f 4456 77be 968a ad3e
00000160: e6bf 81bf fcb2 2bbf 7de4 143f 0110 773f
00000170: 3197 0d3f cb08 dfbe 48bd e6bf 45c2 013f
00000180: 794c 413f 7bc2 883f 6344 f1bd 2671 17bf
00000190: 992f 7d3f 2909 07bf 71eb 09bf 7808 b9be
000001a0: 4373 68bf 3acb 503e a65f 21bf f118 583f
000001b0: eb1b 1abf 7351 81bf f585 3fbf 81bf 37bf
000001c0: 625c 013f b4e1 01bf 74b4 8f3f c72d 6d3e
000001d0: 84dd 473f 8ec7 193f d7b1 0b3f 1715 2a3f
000001e0: 4a95 86be 182a f0bd 66ef 553f 4c66 acbe
000001f0: 903c 1dbf a2a7 7b3f 95dc c13e 391a 253f
00000200: 7432 0b3f c4c9 6cbf 7691 99bf e49a aebf
00000210: f1ef 1d3f 095c eebe 7ec6 3abf acd7 093e
00000220: 0d39 743f a3a9 bbbf b3ca 39bf 0d36 4ebf
00000230: 61c6 be3f f4f7 55bf 6c4e 93bf 7f70 33bf
0.50195545 0.5461018 0.56261224 0.5607201 -1.5825989 0.49766034 -0.3069775 0.95502865
-0.6120259 0.67318714 -1.0317025 -2.0784209 0.5923936 -1.2515584 -0.5152975 -0.19666228
-0.63365465 -0.7113068 -0.52242744 -1.2062796 -0.5002345 -1.4317827 1.2667222 0.6509424
0.30669641 0.55155706 0.6964913 0.5061545 0.2457191 -0.7597885 -0.59493023 0.7796859
0.5153256 -0.5725072 -0.5084838 -0.29258093 -0.65005505 0.12186405 -0.940158 -0.33426592
0.35622942 -1.4843626 -1.0641755 0.85738635 0.8173848 -1.4494686 -1.3286247 0.6346941
1.314007 1.0587367 -0.39304072 0.8191272 -0.07785404 1.080749 0.4014243 0.73776996
-0.61040074 -0.28199148 0.77910477 -0.97574925 -0.61722904 -0.6358609 1.0357761 -0.6495524
0.70881045 0.994017 -1.4426498 0.52171344 -0.5932178 -0.1671381 0.50336397 -0.508122
0.6260294 -0.926627 0.58167994 1.435699 -0.85439247 0.80288804 -0.046293087 -0.75123715
-0.6907756 -1.3155347 0.7620107 0.6373555 0.8875017 0.8729567 -0.24154001 0.33894795
-1.0136688 -0.67069983 0.58161145 0.96508795 0.55308825 -0.43561396 -1.8026514 0.50687057
0.75507313 1.0684351 -0.11780622 -0.59157026 0.98900753 -0.5274835 -0.5387488 -0.36139274
-0.90800875 0.20390025 -0.6303657 0.8441306 -0.6019885 -1.0102981 -0.7481378 -0.71776587
0.5053159 -0.5073502 1.1226945 0.23161994 0.7807238 0.6007012 0.5456824 0.6643843
-0.26285774 -0.11726779 0.8356842 -0.33671796 -0.61420536 0.9830266 0.37863603 0.6449314
0.5437386 -0.9249537 -1.1997516 -1.3641019 0.61694247 -0.46554592 -0.72959125 0.13461179
0.9539955 -1.4661144 -0.7257492 -0.80551225 1.490429 -0.8358147 -1.1508307 -0.7009353

model/batch_normalization_2/FusedBatchNormV3;model/dconv_1/depthwise;model/dconv_2/depthwise f4 [1, 3, 3, 96]
00000000: 2850 0abe 37d9 3fbf fc7e 063e 70bc 273e
00000010: 4511 bdbe 243f 5b3f 9eef 7c3f c52a 06bf
00000020: 1e41 123f dbde 6ebe 2ebe 0dbe 6a9d bbbf
00000030: e410 203e 9f98 4b40 d9b3 fcbd 5b6e c43e
00000040: 721d 8ebf 49b6 1b3f 12fb b1be 8dcb 843f
00000050: 8108 8cbe bb22 24bf b4cd 7cbf 65f1 e43c
00000060: 1835 6dbf cb51 d13d ad3d e63e ba01 903f
00000070: 71ba 033f 6d97 12bf 9e0f 60bf 8395 d3be
00000080: 316b dfbd a43a 3bbf 808d a6bf 9189 1e3e
00000090: 4e33 8f3f f8cf ed3e 4a0b 21be b800 cfbc
000000a0: c049 b03e 2270 05bf 0f4e 613e 7cdf 863f
000000b0: 7bd5 47bd 08b8 48bf c41c 7d3f 45d8 dabf
000000c0: 7fef 083f 15c1 483f 0a8d 003f 9254 ce3e
000000d0: 5a56 bcbf 42e9 10bf c586 4f3f 42a7 71be
000000e0: 4757 4f3e f101 4c3f a365 70be 1ccd d1bf
000000f0: 96da 74bf 5137 d53e cf2e a43f 8a5c 39bf
00000100: 976b 13bf fc68 5abf bd87 b8bf fe0b 8ebf
00000110: e4a3 88bf 26d0 aabf f839 113f 5fe6 6abf
00000120: 5c1a c6bd 335d 08c0 321a 1d3f 86f3 c4be
00000130: 01f4 c33f ff60 6e3f d39d 933f bfb1 6abe
00000140: a2e1 c63f 5ac0 113e 79cc 2d3f d701 fb3e
00000150: 3259 52bf 019f ca3e 6819 44bf 7c11 9abf
00000160: 77e4 2ebe ca64 273f f7d3 ba3e 805f 3cbf
00000170: ba2f 723e 1818 78bf 536c 82be c742 d1bf
00000180: d57c 93bf 7dc7 61bf a0b8 cdbd 7203 8b3e
00000190: 41e0 393e fd6c 773f a978 9cbf 2a76 26be
000001a0: a585 a5bf 6fae 41bf e3bb ebbe 3a49 393e
000001b0: 0074 18bf dd8a 0bbf 2249 18bf 5f32 bebf
000001c0: 0aad 603e 777d 963d 43ca 20bf d87b 913e
000001d0: e346 bd3e dae3 f8be c19e 1cbf 199e 1f3f
000001e0: 654d 703f 7062 e1be 2b8a bd3f 6211 133f
000001f0: 031a fcbe 0c70 9bbe 3d02 d1be 999b 0ebe
00000200: 943d 61bf 9b00 aebe a171 0740 4aef abbe
00000210: 985f 703e 8413 053e bd80 ffbd f93d 85be
00000220: 4e87 0d3f 1a5f 0bbf 8efa d8be 685e e0bf
00000230: 00d2 b33e caed cc3f ab89 493e c7a3 8e3f
00000240: 887e bebe c27d f7bd fe4b 47bf fcb4 aa3f
00000250: 94b1 58be a755 9b3e b17a 7ebe d1da dcbe
00000260: 5741 97bf cfba f8be 31af eabd 6e0d d23f
00000270: 264b 3c3f 28c4 d9be 27eb cdbe 399b e23e
00000280: 73ca a33e 20b0 08be 2731 1ac0 ace2 083f
00000290: 96fd 5d3f bf08 e0bd be06 21bf cc32 d1be
000002a0: 1974 cebd b923 1f3e c746 073f 18df 1fbf
000002b0: 9958 513f 8998 043d 779a c8be 1a47 a1bf
000002c0: bb87 f33e 2f5d 03bf 21c5 c8bf 143f 3d3f
000002d0: ec72 793e a247 9fbe 7eed b13e ecb4 cb3e
000002e0: 4a06 98be 7c79 de3e 9123 24bf 965b fb3e
000002f0: 65c4 3dbf ef86 e63d fb78 db3d 73d3 f43e
00000300: d18b 26bf ba68 ec3b c5ad b2be 4b41 233f
00000310: 7881 13bf 3108 ae3e 2425 b8be 0659 e4be
00000320: 54f0 cabf 57d0 b43f 6b57 eabe 7d82 0240
00000330: 39d2 3c3f 3913 213f f2a6 183f c17e 293f
00000340: f14a 933f 98b3 c5be 9196 243f d9a5 92be
00000350: 4e70 a83f 2fcf ecbe 3c4a 3ebe 4aa7 923f
00000360: b53e 37bf 7104 0740 7c04 1a3f 8a81 c33d
00000370: 7400 2b3f db19 2f3f 9e2e ac3d a65b c7be
00000380: 46b3 eb3f 33db 42bd c30d 8abf ac3d e3bd
00000390: 202b b2bf 85c3 8ebb 11ac fb3d 9f2d d23f
000003a0: 01d5 353f c445 d83e c03c dfbe c51e 0140
000003b0: af73 47be fa6d b2bf 6686 923e d55d f53d
000003c0: 94db 383f 5638 613f da3e 9fbe 27c3 a1bf
000003d0: 645a d23e 6433 ac3f 910b 3cbe 2137 5b3f
000003e0: 9247 653e 073a 333e 3662 28c0 4782 7cbf
000003f0: 4cdc 20bf 19da 0a3f 6b7b cbbd a57a 19be
-0.1350714 -0.7494082 0.13134378 0.16380477 -0.36927238 0.8564322 0.98803127 -0.5240901
0.5713061 -0.233272 -0.13842079 -1.4657414 0.15631443 3.1811903 -0.12338991 0.38365445
-1.1102736 0.6082502 -0.34761864 1.0374619 -0.27350238 -0.64115494 -0.9875138 0.027947137
-0.9265914 0.10220679 0.4496893 1.1250527 0.5145636 -0.5726231 -0.8752383 -0.41325006
-0.10909117 -0.73136353 -1.3011932 0.15482165 1.1187532 0.4644773 -0.15726963 -0.025268897
0.34431267 -0.52124226 0.22002433 1.0536952 -0.048787575 -0.7840581 0.9887202 -1.709725
0.5349044 0.7841962 0.5021521 0.40298897 -1.4713852 -0.56605923 0.81065017 -0.2359896
0.20248137 0.7969046 -0.23476271 -1.639072 -0.95646036 0.41643766 1.2826785 -0.7240683
-0.57586044 -0.85316443 -1.4416424 -1.109741 -1.0675015 -1.3344772 0.5672908 -0.9175777
-0.096729964 -2.1306884 0.61368096 -0.38467044 1.5308839 0.93116754 1.1532539 -0.22919367
1.5537608 0.14233533 0.67890126 0.4902484 -0.8216735 0.39574435 -0.76601267 -1.2036586
-0.1707934 0.65388167 0.3648984 -0.7358322 0.23651019 -0.96911764 -0.2547327 -1.6348504
-1.1522471 -0.8819502 -0.1004498 0.27151066 0.18151952 0.9665068 -1.2224323 -0.16256014
-1.293141 -0.7565679 -0.46041784 0.1809434 -0.59552 -0.54508764 -0.5948659 -1.4859122
0.21941009 0.07348149 -0.62808627 0.28414798 0.36968145 -0.48611337 -0.6117974 0.6235061
0.93868095 -0.44020414 1.480779 0.574484 -0.49238595 -0.30358922 -0.4082202 -0.13926543
-0.87984586 -0.33984837 2.1163104 -0.33581 0.23473966 0.12995726 -0.12475727 -0.26023844
0.55284584 -0.5444199 -0.42378658 -1.752881 0.35121155 1.6010067 0.19681422 1.1143731
-0.3720591 -0.12084533 -0.7785033 1.3336482 -0.2116149 0.30338785 -0.2485149 -0.43135694
-1.1816815 -0.48580024 -0.11459196 1.6410348 0.7355217 -0.42532468 -0.4021847 0.4425905
0.31990394 -0.13348436 -2.40925 0.53470874 0.86715066 -0.10939168 -0.6290091 -0.40859067
-0.100807376 0.15540971 0.5284237 -0.6244979 0.81775814 0.03237203 -0.39180347 -1.2599823
0.47564492 -0.5131406 -1.5685159 0.73924375 0.24360245 -0.3110934 0.34751505 0.3978647
-0.29692298 0.4345206 -0.6411677 0.49093312 -0.741278 0.11256205 0.107164346 0.47817573
-0.6505709 0.007214633 -0.348982 0.63771504 -0.5761943 0.33990625 -0.35965836 -0.4459917
-1.5854592 1.412608 -0.4576982 2.0392144 0.73758274 0.62919956 0.5962974 0.66209036
1.1507245 -0.38613582 0.64292246 -0.28642157 1.3159273 -0.4625182 -0.18583006 1.1457303
-0.7158006 2.109646 0.6016309 0.09546192 0.66797566 0.6839883 0.08407329 -0.3893711
1.8414085 -0.047572326 -1.078545 -0.11095747 -1.3919411 -0.004356804 0.122886784 1.6420172
0.71028143 0.42240727 -0.43601036 2.017503 -0.19477724 -1.3939812 0.28618163 0.11980788
0.7221005 0.87976587 -0.3110264 -1.2637681 0.41084588 1.3453183 -0.18363787 0.85630995
0.22390583 0.17502604 -2.6309943 -0.9863629 -0.62836146 0.5423904 -0.099356495 -0.14988191
